…
B.2.1 GHN-2 Architecture
Our improved GHN-2 is obtained by adding to GHN-1 the differentiable normalization of predicted parameters, virtual edges (and the associated ‘mlp_ve’ module, see the architecture below), metabatching and layer normalization (and the associated ‘ln’ module). A high-level PyTorch-based overview of the GHN-2 model architecture used to predict the parameters for ImageNet is shown below (see our code for implementation details).
(ghn): GHN( # our hypernetwork H_D with total 2,319,752 parameters (theta) (gcn): GCNGated( # Message Passing for Equations 3 and 4 (mlp): MLP( (fc): Sequential( (0): Linear(in_features=32, out_features=16, bias=True) (1): ReLU() (2): Linear(in_features=16, out_features=32, bias=True) (3): ReLU() ) ) (mlp_ve): MLP( # only in GHN-2 (see Eq. 4) (fc): Sequential( (0): Linear(in_features=32, out_features=16, bias=True) (1): ReLU() (2): Linear(in_features=16, out_features=32, bias=True) (3): ReLU() ) ) (gru): GRUCell(32, 32) # all GHNs use d=32 for input, hidden and output node feature dimensionalities ) (ln): LayerNorm((32,), eps=1e-05, elementwise_affine=True) # only in GHN-2 (shape_embed_spatial): Embedding(11, 8) # encodes the spatial shape of predicted params (shape_embed_channel): Embedding(392, 8) # encodes the channel shape of predicted params (op_embed): Embedding(16, 32) # 15 primitives plus one extra embedding for dummy nodes (decoder): Decoder( (fc): Sequential( (0): Linear(in_features=32, out_features=32768, bias=True) (1): ReLU() ) # predicts a 128x16x16 tensor (conv): Sequential( (0): Conv2d(128, 256, kernel_size=(1, 1), stride=(1, 1)) (1): ReLU() (2): Conv2d(256, 4096, kernel_size=(1, 1), stride=(1, 1)) ) # predicts a 64x64x16x16 tensor
21

(class_layer_predictor): Sequential( (0): ReLU() (1): Conv2d(64, 1000, kernel_size=(1, 1), stride=(1, 1)) ) # predicts 64x1000 classification weights given the 64x64x16x16 tensor ) (norm_layers_predictor): Sequential( (0): Linear(in_features=32, out_features=64, bias=True) (1): ReLU() (2): Linear(in_features=64, out_features=128, bias=True) ) # predicts 1x64 weights and 1x64 biases given the 1x32 node embeddings (bias_predictor): Sequential( (0): ReLU() (1): Linear(in_features=64, out_features=1000, bias=True) ) # predicts 1x1000 classification biases given the 64x64x16x16 tensor )
B.2.2 Differentiable Normalization of Predicted Parameters
We analyze in more detail the effect of normalizing predicted parameters (Fig. 8).
Setup. As we discussed in § 4.1, Chang et al. [59] proposed a method to initialize a hypernetwork to stabilize the activations in the netwo
…
